…
    layer_activation_leaky_relu() %>%
    
    # Reduzir o número de cores para 1 (imagem preto e branco)
    layer_conv_2d( 1, 3, padding = "same", activation = "tanh")
  
  # coloca os dois inputs e o output no modelo
  keras_model(list(latent, image_class), output)
}

build_generator()
```

    Model
    ___________________________________________________________________________________________
    Layer (type)                  Output Shape        Param #   Connected to                   
    ===========================================================================================
    noise (InputLayer)            (None, 4, 10)       0                                        
    ___________________________________________________________________________________________
    sampled_labels (InputLayer)   (None, 4, 10)       0                                        
    ___________________________________________________________________________________________
    add_2 (Add)                   (None, 4, 10)       0         noise[0][0]                    
                                                                sampled_labels[0][0]           
    ___________________________________________________________________________________________
    flatten_4 (Flatten)           (None, 40)          0         add_2[0][0]                    
    ___________________________________________________________________________________________
    dense_10 (Dense)              (None, 392)         16072     flatten_4[0][0]                
    ___________________________________________________________________________________________
    reshape_5 (Reshape)           (None, 4, 7, 14)    0         dense_10[0][0]                 
    ___________________________________________________________________________________________
    conv2d_transpose_4 (Conv2DTra (None, 64, 14, 28)  2368      reshape_5[0][0]                
    ___________________________________________________________________________________________
    leaky_re_lu_10 (LeakyReLU)    (None, 64, 14, 28)  0         conv2d_transpose_4[0][0]       
    ___________________________________________________________________________________________
    conv2d_transpose_5 (Conv2DTra (None, 64, 28, 56)  36928     leaky_re_lu_10[0][0]           
    ___________________________________________________________________________________________
    leaky_re_lu_11 (LeakyReLU)    (None, 64, 28, 56)  0         conv2d_transpose_5[0][0]       
    ___________________________________________________________________________________________
    conv2d_transpose_6 (Conv2DTra (None, 32, 28, 112) 18464     leaky_re_lu_11[0][0]           
    ___________________________________________________________________________________________
    leaky_re_lu_12 (LeakyReLU)    (None, 32, 28, 112) 0         conv2d_transpose_6[0][0]       
    ___________________________________________________________________________________________
    conv2d_8 (Conv2D)             (None, 1, 28, 112)  289       leaky_re_lu_12[0][0]           
    ===========================================================================================
    Total params: 74,121
    Trainable params: 74,121
    Non-trainable params: 0
    ___________________________________________________________________________________________

No caso, nossa resposta é 4747:

```{r eval=FALSE, echo=FALSE}
y <- matrix(
  c(0,0,0,1,0,0,0,0,0,0, 
…
  # chega na segunda resposta (Y)
  aux <- features %>%
    layer_dense(4 * 10, activation = "relu") %>% 
    layer_reshape(c(4, 10)) %>% 
    layer_activation("softmax", name = "auxiliary")
  
  # junta os dois no resultado
  keras_model(image, list(fake, aux))
}

build_discriminator()
```

    Model
    ___________________________________________________________________________________________
    Layer (type)                  Output Shape        Param #   Connected to                   
    ===========================================================================================
    input_4 (InputLayer)          (None, 1, 28, 112)  0                                        
    ___________________________________________________________________________________________
    model_5 (Model)               (None, 128)         900224    input_4[0][0]                  
    ___________________________________________________________________________________________
    dense_9 (Dense)               (None, 40)          5160      model_5[1][0]                  
    ___________________________________________________________________________________________
    dense_8 (Dense)               (None, 32)          4128      model_5[1][0]                  
    ___________________________________________________________________________________________
    reshape_4 (Reshape)           (None, 4, 10)       0         dense_9[0][0]                  
    ___________________________________________________________________________________________
    generation (Dense)            (None, 1)           33        dense_8[0][0]                  
    ___________________________________________________________________________________________
    auxiliary (Activation)        (None, 4, 10)       0         reshape_4[0][0]                
    ===========================================================================================
    Total params: 1,819,090
    Trainable params: 909,545
    Non-trainable params: 909,545
    ___________________________________________________________________________________________

Note que o resultado é uma lista de dois outputs.

#### O `gan()`

`gan()`
…
