…
# função de perda e métrica a acompanhar
model %>%
  compile(
    optimizer = optimizer_adam(),
    loss = loss_categorical_crossentropy,
    metrics = metric_captcha
  )

# ajustando modelo
model %>%
  fit(
    x = data$train$x, y = data$train$y,
    validation_data = list(data$test$x, data$test$y),
    batch_size = 64,
    epochs = 10
  )
```

A estrutura do modelo ajustado é dada abaixo:

    __________________________________________________________
    Layer (type)              Output Shape           Param #  
    ==========================================================
    input_1 (InputLayer)      (None, 28, 140, 1)     0        
    __________________________________________________________
    conv2d (Conv2D)           (None, 28, 140, 16)    416      
    __________________________________________________________
    max_pooling2d (MaxPooling (None, 14, 70, 16)     0        
    __________________________________________________________
    conv2d_1 (Conv2D)         (None, 14, 70, 32)     4640     
    __________________________________________________________
    max_pooling2d_1 (MaxPooli (None, 7, 35, 32)      0        
    __________________________________________________________
    conv2d_2 (Conv2D)         (None, 7, 35, 64)      18496    
    __________________________________________________________
    max_pooling2d_2 (MaxPooli (None, 3, 17, 64)      0        
    __________________________________________________________
    flatten (Flatten)         (None, 3264)           0        
    __________________________________________________________
    dense (Dense)             (None, 64)             208960   
    __________________________________________________________
    dropout (Dropout)         (None, 64)             0        
    __________________________________________________________
    dense_1 (Dense)           (None, 50)             3250     
    __________________________________________________________
    reshape (Reshape)         (None, 5, 10)          0        
    __________________________________________________________
    activation (Activation)   (None, 5, 10)          0        
    ==========================================================
    Total params: 235,762
    Trainable params: 235,762
    Non-trainable params: 0
    __________________________________________________________

Agora, podemos utilizar o oráculo com o modelo:

```{r}
result <- oracle_mnist(model, 0)
result$res
```

    $predito
    [1] 8 6 6 0 1
    
    $acertou
    [1] TRUE
    
    $quais
…
